app/src/main/assets/ecg_model.tflite (tflite, 189976 bytes, 18 tensors)

arith.constant2 f4 [64]
00000000: 6b7c 2a41 ec98 0441 8938 d641 8a78 cc40
00000010: 99e9 5b40 c502 0a40 319d 8041 5352 ef40
00000020: a4ad 7d41 ef14 a040 628c 3c41 0d47 fc40
00000030: 169e 7b41 1601 c13f 2a58 9f40 3f3d d940
00000040: cb6a 5540 ae21 e041 cbc7 b840 cb3a 8c40
00000050: d2f9 833f 2c96 a341 b542 0d41 5b50 0440
00000060: 2487 0242 3e1c 4141 e96d 5741 73b7 b240
00000070: 7416 0c41 84ef 4041 b777 2d41 8834 d140
00000080: 9058 df40 5f51 fa40 c7c6 4140 1c4f 4f40
00000090: 4af7 b140 7c79 e140 6fe9 0941 d1ed e240
000000a0: d0d9 ee41 8d1e 1e40 dc28 0b41 56dc b740
000000b0: dc17 9e40 27a3 c041 e18a 2e40 f7cb da3f
000000c0: 2ae7 0b40 3cf6 ea40 2b73 1b40 7a10 3d41
000000d0: 0bfc 3b41 8c46 7141 a5ae 2941 d87d 4740
000000e0: 1731 e340 3f70 0e40 a45b 3e41 7f87 6141
000000f0: 13ca 3041 e816 c941 38ac 5e3f 33bd 6941
10.6553755 8.287334 26.777605 6.3897142 3.4361327 2.156419 16.076754 7.4787993
15.854893 5.0025554 11.784273 7.883673 15.726095 1.5078456 4.979512 6.7887263
3.3346431 28.016445 5.774389 4.382177 1.0310614 20.448326 8.828786 2.0674045
32.631973 12.069395 13.464334 5.5848937 8.755482 12.0584755 10.841727 6.5376625
6.979561 7.822433 3.0277574 3.2392035 5.5614367 7.0460796 8.619491 7.0915303
29.856354 2.4706147 8.697475 5.7456465 4.9404125 24.079664 2.7272265 1.7093495
2.1859841 7.342558 2.4289043 11.816523 11.749034 15.079723 10.605138 3.117056
7.0997424 2.225601 11.897373 14.09558 11.049335 25.136185 0.86981535 14.608691

arith.constant3 f4 [64]
00000000: c8a7 e3bf eb00 1cbf 545d debf 54be e4be
00000010: 58b4 47bf eafa d9be 2e41 43be 6222 e9be
00000020: cb39 61be 1164 5cbf 5207 eebf 89c3 c1be
00000030: 5b53 37be 7c84 bcbe 7e68 53bf 6a0b 0cbf
00000040: 08b7 1cbe 0e21 b9bf 6af7 b6bd 5a6a 49bf
00000050: 7069 81bd 009f c83e d466 31be ee42 1dbe
00000060: 6ee0 cdbf 7e72 14bd e9c7 49be 698a 02bf
00000070: 6b86 04bf 5df1 2bbe ee28 11be 65a9 70be
00000080: ceef 02bf 3cee 42bf 648a 1cbd faa0 f4bd
00000090: 1cee 10bd 924f c5bf 171f 1cc0 8c27 6cbf
000000a0: 2073 ff3b 02ee 47be 961e 85bf f7a8 38be
000000b0: ec8a 45bf 3075 07bc c489 b3bd ae4a 1bbe
000000c0: 0a46 c0bd a8d2 e3bd 10f4 c9be d8ab f2be
000000d0: aa3f ebbf de5d d1bf 8c66 93bd abdc 3bbe
000000e0: 185f e8bd 8667 2ebe 5e30 1cbe fbbc 40be
000000f0: 7e7a fabd 9ab9 833d dca6 b0bd 1f5a 1bbe
-1.7785578 -0.609389 -1.7372231 -0.4467646 -0.7800956 -0.42574245 -0.19067833 -0.45534045
-0.21994703 -0.8609019 -1.8595984 -0.37844494 -0.17902891 -0.36819828 -0.8258132 -0.54704916
-0.15304196 -1.4463212 -0.08933909 -0.78677905 -0.06318939 0.39183807 -0.17324382 -0.15357563
-1.6084116 -0.036242 -0.19705166 -0.5099245 -0.51767606 -0.16791292 -0.1417577 -0.23502119
-0.5114716 -0.76144767 -0.038217917 -0.11944766 -0.03538333 -1.5414908 -2.4393976 -0.92247844
0.0077957064 -0.19524387 -1.0399959 -0.18033205 -0.771651 -0.008267686 -0.08766511 -0.15165207
-0.09388359 -0.11124164 -0.39444017 -0.4739673 -1.8378804 -1.6356771 -0.07197294 -0.18345897
-0.11346263 -0.17031679 -0.15252826 -0.1882209 -0.12230395 0.06431885 -0.08625576 -0.15171097

arith.constant4 f4 [128]
00000000: 80cd cf3e edbe db3e 143e 093f fb2a 4e3f
00000010: af7d f93e c275 9e3e 4b2c 253f 1324 c53d
00000020: 6ad5 d73d 6f98 603e 4e88 423f c3a3 623f
00000030: 6c64 6a3f 1245 043f 29e7 203f 11bb 503f
00000040: 2d75 483f 6366 323f 4540 823e aac8 9f3e
00000050: 2adf 7d3f ab52 d73d 8b9b a23e df7b c93e
00000060: bca4 b43e d49c d03e 514c ce3d f534 9b3f
00000070: 6f84 883e abb0 9b3e 8d5f 023f 72d6 823e
00000080: c8bd 0d3f c658 4a3f 1d7c b53e 8d7e 9d3f
00000090: 07f9 3c3f 6382 ba3f ec51 333e f3a7 c23f
000000a0: 8e00 0f3f c904 563e 7153 2b3e df09 1c3f
000000b0: 8d64 823e 7ce1 b43e ce88 be3e 33e5 5d3f
000000c0: d8a5 ab3e 1c5e fc3e e739 173f b3e1 1c3f
000000d0: 2815 6b3f 53ac 0f3e d09c 113e 1687 1e3f
000000e0: e589 103f e514 0d3e 5765 403e db74 673f
000000f0: 0769 f83d 0d47 ce3e b20d 743e f887 2a3f
00000100: 1b64 333f d8b5 193e f574 2e3f 57f6 bd3e
00000110: 902a f53d 60a5 343e 47dc 493f ea61 343f
00000120: 5873 473f 31ec e03d 956b 883f 15ed 6c3f
00000130: 35e6 b73e 59ec c23e 6be3 103e b7b3 f23e
00000140: af61 233f 99a0 1d3f 3204 f33e 6fa0 393f
00000150: 390d 1a3e 89a7 433f 9fc4 0d3f 45af 423f
00000160: 8319 1a3f 8299 513f 59e6 b13f c8a8 803e
00000170: ba6a d53d a2ca 383f d840 863f e55f 2c3f
00000180: 975d fe3e 533a a13e f374 633f a739 733f
00000190: 4923 043f 4eba dd3e c3bd 973f 44ce 303f
000001a0: f96e ae3e 8ac9 ba3e 06b3 593f 877b f73d
000001b0: d523 253f fede 8b3f ad03 9e3f 739f ea3d
000001c0: fcd5 033f b481 0c3f db6b 343f 3ae6 033e
000001d0: 83b1 203f 00b8 db3f 96bc f43e f1ad 783e
000001e0: 6b81 e33d 59f9 603f 67d0 223e 9a00 f13e
000001f0: 08b5 e93e 7cf3 f73d a39e f03e de81 873e
0.40586472 0.42919102 0.5361035 0.80534333 0.487287 0.30949217 0.6452071 0.09626021
0.105387524 0.21933149 0.75989234 0.8853113 0.9155948 0.5166789 0.6285272 0.8153544
0.78303796 0.6968748 0.2543966 0.31207782 0.99168646 0.105138145 0.31759295 0.3935232
0.35281932 0.4074465 0.1007315 1.2125536 0.2666354 0.30408224 0.5092705 0.25554234
0.5536771 0.7904171 0.35446253 1.2304245 0.73817486 1.4571041 0.1751172 1.5207504
0.5586022 0.20900263 0.16731049 0.6095256 0.2546734 0.3532828 0.3721375 0.86677855
0.33524966 0.4929055 0.59072727 0.6128189 0.91829157 0.1403058 0.14219975 0.61924875
0.5646041 0.13777502 0.18788658 0.9041268 0.121294074 0.40288582 0.2383335 0.6661372
0.70074624 0.15010774 0.6814721 0.37102005 0.11971009 0.1764121 0.7885174 0.70461905
0.77910376 0.1098255 1.0657831 0.9254926 0.35917822 0.38070944 0.14149253 0.47402737
0.6382093 0.6157318 0.47464138 0.7251043 0.15044107 0.76427513 0.55378145 0.7604869
0.6019518 0.8187486 1.3898422 0.2512877 0.10420747 0.72184193 1.0488539 0.67333823
0.49680778 0.3148981 0.88850325 0.95009845 0.5161634 0.43306202 1.1854786 0.69064736
0.3406904 0.36481887 0.85038793 0.12084108 0.645078 1.0927427 1.2344872 0.11456194
0.5149839 0.5488541 0.70477074 0.12880793 0.6277086 1.7165527 0.4780013 0.24285103
0.11108669 0.87880474 0.15899812 0.4707077 0.45645928 0.12106988 0.4699603 0.26466268

arith.constant5 f4 [128]
00000000: c0ef a8bb a304 09bf 2760 14be 27b0 fbbe
00000010: cad3 25be 7876 51bd c8df 2cbd f0d9 573d
00000020: c8b0 bf3c 6790 88be 7ec2 acbe d1cd 86bf
00000030: 4d6a 85be 72cf babe 3624 cabe a0fb 1dbe
00000040: e018 00bd ec5b f5be 4e2e 23be 5062 0ebe
00000050: e818 663d ecf6 133d 40d7 a7bc ccd9 683e
00000060: 8093 42bc f639 babe 91c0 993e 192d 24bf
00000070: 50a2 acbc f897 7abd 6083 70bf fb53 0f3e
00000080: 23fc 96be 3f59 5abf 1aac 15bf d0bc d1be
00000090: 9e9d 7abe 60ca 15bd 388a 82be c84c 7f3d
000000a0: 8d52 0bbf 55b5 9e3e 6064 03be c953 51be
000000b0: 6c5d c83e 3834 f8bd 90e3 853c c8f6 8ebe
000000c0: 48f4 c4bd 6946 04bf 20d9 a2bf d0b8 7d3d
000000d0: 471b 96be a063 19bc a89e cdbd 0674 fbbe
000000e0: e6c8 fbbe 30e1 183d cc98 bcbd ef8b a6bf
000000f0: c085 493d b86b 7ebe f04d ef3c da18 24be
00000100: 4d39 04be 90c5 39bd 60b7 243d 1096 33bd
00000110: 3860 823d 13dc 3cbe cca3 87bf 7c0e 0ebe
00000120: a4ea 4bbf 06d8 093e 7e2f eabe d51f b5bf
00000130: 4c73 46be 9d62 e4be 4417 8bbd 740c 6fbe
00000140: 92e1 9cbe 1e25 73bf 3513 143e 200e e7be
00000150: b0d7 e83d 243e f6be ee72 48be 00e9 2cbf
00000160: 508b 1cbc 4aa4 64bf c0ee 80bc 3843 9fbc
00000170: 3210 68bd eb2f 83be be70 95be c089 07bd
00000180: 8889 933d c305 d3be bc0d ecbd b57b fdbe
00000190: 7073 383e 9a54 30bf 0cec d1be fab6 21be
000001a0: c5dd 24be cc45 8cbe c815 49bf b661 f93d
000001b0: 8c2d 643e b42f 8dbf 3a2c 1dbf 2012 793d
000001c0: ca7a bdbe 1de1 b2be e840 76bc 14d1 d9bd
000001d0: aaf4 1cbf 3603 19be a00f 2d3c a647 67be
000001e0: 224a fcbe 6e00 16bf 0022 d7ba af11 9abe
000001f0: 94ab 1fbd 9485 6abd 9a3b b3be 8cdf 803d
-0.0051555336 -0.535227 -0.14489804 -0.4915783 -0.16194072 -0.05113837 -0.042205602 0.052698076
0.023399726 -0.2667267 -0.33742136 -1.053156 -0.26057664 -0.36486393 -0.39480752 -0.15428019
-0.031273723 -0.47921693 -0.15935633 -0.1390469 0.056176096 0.036124155 -0.020488381 0.22739333
-0.011875987 -0.36372346 0.3002973 -0.64131314 -0.02107349 -0.061180085 -0.9395046 0.1399688
-0.2948924 -0.8529243 -0.5846573 -0.40964365 -0.24474189 -0.036569953 -0.25496078 0.062329084
-0.5442284 0.3099772 -0.12831259 -0.20442118 0.39133775 -0.12119335 0.016343862 -0.27922654
-0.096169055 -0.5166994 -1.2722511 0.06194383 -0.29317686 -0.009362131 -0.10040027 -0.49111956
-0.4917671 0.03732413 -0.09208831 -1.3011454 0.04919982 -0.24845779 0.029211968 -0.16025105
-0.12912484 -0.045354426 0.040213943 -0.043844283 0.063660085 -0.18443327 -1.0596862 -0.13872713
-0.7965491 0.13461313 -0.4573936 -1.4150339 -0.1937992 -0.44606486 -0.06791547 -0.23344594
-0.30640846 -0.9497851 0.14460452 -0.45127964 0.11369264 -0.48094285 -0.19575092 -0.6754303
-0.009554699 -0.89313185 -0.015738845 -0.019441232 -0.05665607 -0.25622496 -0.29187578 -0.033090353
0.072039664 -0.41215333 -0.11526057 -0.49508443 0.18012786 -0.6887909 -0.41000402 -0.15792456
-0.16100223 -0.27397 -0.7854886 0.1217684 0.22283 -1.1030183 -0.6139561 0.0608083
-0.37007743 -0.34937373 -0.015030123 -0.106355816 -0.6131083 -0.14942631 0.010562807 -0.22585925
-0.4927531 -0.58594406 -0.0016413331 -0.30091617 -0.03898199 -0.057256296 -0.3500641 0.06292638

arith.constant6 f4 [256]
00000000: e2b4 443f 6337 2f3f bf9e b53e c17c f63d
00000010: 994f 033e cc90 a83f 1f76 963f 83a7 fa3e
00000020: 6020 073f 9315 b73f c49b 933e 33aa b53e
00000030: dd09 353f a65a a43e 8ff5 aa3e 3139 813f
00000040: b7d7 633f af87 8b3e a701 ee3d bd47 193f
00000050: f246 673e f2dd a73e f7b1 f53d 45e7 363e
00000060: 3352 fb3d 1b90 333f a420 a03e 046b 9c3f
00000070: d42a 123f e032 f53f 820b 7740 b2a5 4b3f
00000080: 358b 603e 0a65 ba3e eb46 203e dd37 7f3f
00000090: 5acd eb3e fac2 103e 6462 4b3f 7da2 d33e
000000a0: b16c 1e3f a7b1 a13e 415a c43f f327 4d3e
000000b0: 91bb 393f 5470 9f3e d508 2f3f 335a 633f
000000c0: ba5e 983e 1523 2f3f 4dac 7f3f fcda 1f3e
000000d0: b1fe 173f e3d5 733f 8bcb 893e 4a3e 163e
000000e0: 5982 1e3f 18b1 1d3e 8c6a 763e ffe9 cf3d
000000f0: 2e3a 293f cce2 453e e22e 8a3e bf12 023f
00000100: ceed 3f3f 5912 8b3f d3d5 243f 300a 813e
00000110: e77c 443e fbc8 123e 03b6 ec3e d98d 363f
00000120: 2975 f33f 97d6 be3f 4d26 c93e d76c 723e
00000130: f275 a73f b882 803f ca19 923f 6711 b23e
00000140: 7010 953d 960f c83e 19ed 513f 560e 7d3f
00000150: 5e38 563e 9a6f 293e cf3f e23f 7f62 513e
00000160: 87f4 ac3f 79d9 b13f 35a1 1f3e fa35 f741
00000170: 890d eb3e a74a 303f d70c 2f3e 90cc 813f
00000180: d96b c13e 9ab5 0440 c3aa 963e cfd0 4c3f
00000190: 7867 843f 5d7c aa3e 906f dc3e 644e 633e
000001a0: 9c97 123e 72e9 cf3f ec07 6f3e 3c39 2c3f
000001b0: 2e1e d63f 9f28 5b40 6ffc 1042 f7b7 b03e
000001c0: 8724 623f e548 383e e6e8 383f 3d4f 063f
000001d0: 8221 323e 03fb 893f c7db 653e 001c bf3e
000001e0: 8b51 6a3f ea8d 9e3f dc2f 243f 0c12 963e
000001f0: d89c f83e c157 3c3f f706 6c3e 5018 353e
00000200: 1365 e241 421c 4b3e f66f 893f 003a 0a3f
00000210: 7e8c d03e 4700 8a3f 1195 133f 4c8f 1d3e
00000220: 47bf 973f 52f2 063f d63e 2d40 c6e9 633e
00000230: cf7e c53f 28e0 da3e cc61 553f 7ec6 183e
00000240: 9bd5 a53e a59a 893e 08c7 c63e 4c3a 183f
00000250: 4278 ca3e 864f 033f d0ef 9a3e fded 513e
00000260: 09c0 033f 5706 7d3e 962a 943e 856f 963f
00000270: ec0c 323e 9343 233e edc0 c73f 4f32 d93d
00000280: f68f 3a40 2b2c 183f 7098 043e 8912 433e
00000290: 75c4 bb40 5ba4 993f 6f62 f83f db91 693e
000002a0: 68cc 693e 049b 5740 bf86 0f3f 9a59 283f
000002b0: 1dcd 513e 9524 903e 0340 913e 293b 2c3e
000002c0: 75bf 863e d75f 3a3f 6e41 863e 4bdd b73e
000002d0: 5726 4d3e b2dc 363f 8b11 ca3e 4bfd 283f
000002e0: 4c48 6d3e 66a4 e23e a294 8b3f 6670 b23f
000002f0: 438c 103f 38ec b63e 9624 2240 223b 853e
00000300: 993d 1e3f bbba e63e d94e 8d3f 588a 0741
00000310: 51a2 ab3e 1da3 1e3e cde5 a43e bf0f 623f
00000320: c634 c93e f613 e03e 1135 cd3d d575 2640
00000330: aafb 873e 3f4b 1142 d03a 883e 2e2b 6e3f
00000340: d9a7 cd3e cf65 fb3e 62cf 6f3e fa91 153e
00000350: 530d 0b40 04f5 8d3e d7da dc3d e76a 433f
00000360: 7b4a 2d3f b087 943e 5e80 f13d c58a 0342
00000370: 0455 ac3e 018e 743f 897e 853e 8eb8 883e
00000380: 5c45 363f f87b b83e f618 bc3e 6422 9c3f
00000390: c6da cf3e 0219 723e a04f c13e 45cf 0540
000003a0: 2145 603f 5682 0d3f b24a 9f3f 6ab7 aa3e
000003b0: 50b7 163f 0e71 163f b89e 6e3f 9bc2 ca3e
000003c0: 405a 2a3e 2dda 5a3f 4faf c43e 71ee f83e
000003d0: e2fd b43e 643e 293e efba 443f af87 3e3e
000003e0: 4fae ff3e 529b eb3e dad6 da3e 38d9 a83e
000003f0: 6443 1a40 b30b eb3e 418d 3f3e a342 923e
0.76838505 0.6844389 0.35472676 0.12035514 0.12823333 1.3169188 1.1754798 0.48955926
0.52783775 1.4303459 0.28829777 0.35481414 0.70718175 0.3210041 0.3339047 1.0095578
0.8900103 0.27251956 0.11621409 0.5987509 0.22585657 0.32786518 0.11996835 0.1786166
0.12271538 0.7014176 0.31274903 1.2220159 0.570966 1.9156151 3.8600774 0.79549706
0.21928103 0.36405212 0.15652053 0.99694616 0.46055108 0.14136878 0.7944701 0.41334906
0.618846 0.3158085 1.5340043 0.2003477 0.7255183 0.31140387 0.6837285 0.8880951
0.2975977 0.68412906 0.99872285 0.1561088 0.59373003 0.9524824 0.26913103 0.14672199
0.61917645 0.15399587 0.24064082 0.10152053 0.661044 0.19324797 0.26988894 0.50809854
0.74972236 1.0864974 0.6438877 0.25203085 0.19188271 0.1433448 0.46232614 0.7131019
1.902013 1.4909238 0.39287034 0.23674332 1.3082869 1.0039892 1.141412 0.34778902
0.07278526 0.3907439 0.8200241 0.9885 0.2091994 0.16546479 1.7675723 0.2044773
1.3512124 1.3894492 0.1558884 30.901356 0.45908764 0.6886391 0.17094742 1.0140553
0.37777594 2.073584 0.29427156 0.80006117 1.0344076 0.33298007 0.43053865 0.22197872
0.14315647 1.6243117 0.23342866 0.6727483 1.672796 3.4243543 36.246517 0.34515354
0.88336986 0.17996557 0.72230375 0.5246466 0.17395595 1.0779728 0.2244712 0.3732605
0.91530675 1.2387059 0.6413553 0.29310644 0.48557162 0.735714 0.23049532 0.17685056
28.299353 0.19834998 1.0737293 0.5399475 0.40732187 1.0781335 0.5764933 0.15386695
1.1855248 0.527135 2.7069602 0.22257146 1.5429324 0.42749143 0.8335235 0.14919469
0.3238953 0.26875797 0.38823724 0.59463954 0.39544874 0.5129322 0.30261087 0.20500942
0.514649 0.2470945 0.2893874 1.1752783 0.17387742 0.15943746 1.5605751 0.10605299
2.9150367 0.59442395 0.12948775 0.1905004 5.8677316 1.2003282 1.940504 0.22809546
0.22831881 3.3688364 0.5606498 0.6576172 0.20488401 0.2815291 0.2836915 0.16819443
0.26317945 0.7280249 0.26221794 0.3591102 0.20034157 0.71430504 0.3946651 0.66011494
0.2317211 0.4426605 1.0904734 1.3940551 0.5646402 0.35727096 2.533483 0.26021677
0.6181274 0.4506434 1.1039687 8.471275 0.33522275 0.1549191 0.32206574 0.88305277
0.39298075 0.4376523 0.10019887 2.600942 0.26559192 36.323483 0.2660737 0.93034637
0.4016712 0.4910111 0.23418954 0.14606467 2.1726882 0.27725995 0.10783928 0.76334995
0.67691773 0.2900977 0.11792062 32.885517 0.33658612 0.9552918 0.260731 0.26703304
0.71199584 0.3603208 0.36737794 1.2197995 0.40596598 0.23642352 0.37756062 2.0907757
0.8760548 0.55277 1.244467 0.3334306 0.5887346 0.5876626 0.93210936 0.39601597
0.1663599 0.8548916 0.38415 0.48619416 0.35349947 0.16527706 0.7684774 0.18606447
0.49937674 0.46016937 0.42742044 0.32978225 2.4103632 0.45907363 0.18706228 0.28566465

arith.constant7 f4 [256]
00000000: 0ee8 b0be 4c8c 59be 9e1a 12bf a4b5 dbbe
00000010: 5bf8 26bf 61a1 19be 9831 98be 7338 edbe
00000020: c8d3 8abd c057 4bbe b7e4 c4be 3ebe 24be
00000030: 9f88 87be 4bee 10bf 0d8e 74be 2486 2dbe
00000040: 3874 67be 4c63 5abe 7152 0abf 599b fabd
00000050: fb77 06bf dfd8 07bf 4751 b0be 1de8 07bf
00000060: f640 8dbe f6ae 31be a5d4 46be b515 dfbd
00000070: 8b3f e2be e21a 043d 88ee f1bb f78a 73be
00000080: 3da9 4ebf 5a3d a6be 8cca cbbe bf9f 6fbe
00000090: 3fca 1abe 73d6 41bf d3fc b1be 04ba a6be
000000a0: 78bd 5abe 36ec 89be fd07 80bd dc67 09bf
000000b0: 9a10 2dbe fb64 88be 44aa b1be e6a6 22be
000000c0: eaf1 60be 5338 09be 1edb 8bbe 824d 8ebe
000000d0: 27b2 a2be 6d5b 1cbe 5248 98be 6c61 f9be
000000e0: d69b aabe ea8e a6be 7c57 29bf 77e6 6bbf
000000f0: 5238 94be 994e cebe 3247 e8be e85b 43be
00000100: 9408 d4bd 306a 5fbe d6fc 29be dafe 38bf
00000110: 6e86 a2be ad60 39bf b29b 93be dc5d 56be
00000120: 3875 83be c494 5abd f744 92be 849c d1be
00000130: 2c30 03be 0ebe 31be 1410 31be c6a2 d2be
00000140: 94b6 abbe 0b0d 0cbf 80ea c6be f031 80be
00000150: 70fe 06bf eea1 13bf d02b e6bb f671 cfbe
00000160: e4fe f5bd bca2 1bbe b23f b6be c6cb 16bc
00000170: 01bb c8bd 4b2c b5be e1d4 adbe 5bf4 88be
00000180: b891 46be 1c0f d5bd c2a8 c7be afeb e4bd
00000190: 55f3 6fbd 8450 e3bd 74b5 71be ecfd 44bf
000001a0: 68ab dabe fc0d a5bd ee55 07bf cc50 e3be
000001b0: 2814 67be 1573 88bd fc92 b83b 1215 17bf
000001c0: ec04 3bbd c143 9bbe 6206 3abe 35a9 8ebe
000001d0: f65f bebe 48c9 debd 6be0 e6bd 06a5 d0bd
000001e0: 72ec a8be 8da2 0fbe 90a8 5ebe 6603 27bf
000001f0: bf08 30be 8485 4fbe 6fcf 66bf 6852 eabe
00000200: ffa6 d63a 56d2 83be e87a 86bc ac22 47be
00000210: 8e2b 10bf 7446 05be 2e76 e9be 964b 11bf
00000220: 6681 9fbd afc6 29be 212c 873d 3bbe 76bf
00000230: 639b 06be cb86 03bf 64db b0be e166 f8be
00000240: f5cc 87be e919 e0be 5662 e0be 5630 80be
00000250: c072 c2be e86e 01be 3ce4 18bf 9602 12be
00000260: 9a4c 01be 9bdc a3be 1643 f7be b085 73be
00000270: 5e92 bdbe 96b9 d5be e607 19bd 8464 c1be
00000280: bcd7 b2bd e2f9 a7bd 8cbd 18bf da0f 90be
00000290: 60ff 88bc 85eb 97be cff5 4cbe 81fc acbe
000002a0: 4f8b febe 781a fdbd d041 12be 155f b5be
000002b0: 099f aabe f7b4 9abe 08b9 87be e630 fcbe
000002c0: d040 d5be 76ae cdbe 2834 6ebd 0b55 36be
000002d0: 605d 41bf 5a90 5dbe ae4f dbbd 057f ebbe
000002e0: 540b 2fbf 019b 2ebe d460 f33c 2346 dfbe
000002f0: 7aa7 45be 086d bbbe 8063 01be e251 0bbf
00000300: d57c 88be b145 83be a9c6 babe e029 bf3c
00000310: dfd5 a7be 9e1e eebe f491 e7be cf34 2dbe
00000320: 0a1b d6be dbcb febe b6f1 eebe fff7 8bbe
00000330: 5891 c6bf 9f0b 053c 7039 d6be 3039 bcbe
00000340: 1257 fbbe e8ea 52be 2646 ffbe e71c 41bf
00000350: 88e0 d6bd 7b72 13be 1d01 d8be 4d0a cfbe
00000360: ead1 86be 5a11 d0be 0748 bbbe a42b bebb
00000370: d564 20bf 7765 80be 8ae6 93be e44f 59be
00000380: 644b c6bd 2243 66be 6138 e4be 68e0 84be
00000390: 9114 0fbf b6c8 9bbe 2675 63be 1431 63bd
000003a0: 78bb aebe 385d 04bf b437 04be 05ba 10bf
000003b0: a0fa 1dbe a1de b1be c329 fdbd ecac 2dbf
000003c0: cb25 17bf ab63 07bf 94be 8cbe 355c 2bbe
000003d0: 004c bbbe 330f 3bbf fc0a dfbe ef12 05bf
000003e0: efb0 59be f883 17bf 9a56 bfbe 0355 12bf
000003f0: 08e9 48be 2386 abbe 8829 c5be 6b31 ebbe
-0.34552044 -0.21244925 -0.57071865 -0.42912018 -0.6522271 -0.15002967 -0.29725337 -0.4633213
-0.06778675 -0.19857693 -0.38455746 -0.16088197 -0.2647142 -0.56613606 -0.23882313 -0.16945702
-0.22602928 -0.21326941 -0.54032046 -0.122366615 -0.52526826 -0.53065294 -0.3443701 -0.5308855
-0.27588624 -0.17351899 -0.19417055 -0.10892812 -0.44189104 0.0322522 -0.0073831715 -0.2378348
-0.8072699 -0.32468683 -0.39802969 -0.23400782 -0.15116213 -0.7571785 -0.34763202 -0.32563794
-0.21361339 -0.26938027 -0.06251524 -0.536741 -0.16900864 -0.26639542 -0.34700215 -0.15883979
-0.21967283 -0.13400392 -0.2731561 -0.2779351 -0.31776544 -0.15269251 -0.29742676 -0.4870714
-0.33322018 -0.3253091 -0.66149116 -0.92148536 -0.2894922 -0.4029434 -0.45366818 -0.19078028
-0.10353199 -0.21817851 -0.16600356 -0.7226387 -0.31743187 -0.7241314 -0.28829724 -0.20934242
-0.25675368 -0.05336453 -0.2856824 -0.40939724 -0.12811345 -0.17357656 -0.1729129 -0.4113981
-0.33537734 -0.547074 -0.38850784 -0.250381 -0.5273199 -0.5766896 -0.007024266 -0.40516633
-0.12011507 -0.15198797 -0.3559547 -0.009203857 -0.09801293 -0.35385355 -0.33951476 -0.26748928
-0.19391525 -0.104032725 -0.3899594 -0.111777656 -0.05858167 -0.110993415 -0.23604375 -0.76949954
-0.42708898 -0.08059308 -0.52865493 -0.4439758 -0.22566283 -0.06662575 0.0056327563 -0.59016526
-0.04565899 -0.3032513 -0.18166497 -0.2786347 -0.37182587 -0.10878235 -0.11273273 -0.10187726
-0.32992893 -0.14026852 -0.21743989 -0.6523956 -0.17190836 -0.20265776 -0.9016027 -0.45765996
0.0016376673 -0.2574641 -0.016416028 -0.1944682 -0.5631646 -0.13015157 -0.45597976 -0.5675596
-0.07788353 -0.16579698 0.06600214 -0.9638402 -0.13145213 -0.5137755 -0.34542382 -0.4851599
-0.26523557 -0.43769768 -0.43825024 -0.25036877 -0.37978172 -0.12639964 -0.5972326 -0.14258799
-0.12626877 -0.32004246 -0.4829337 -0.23781466 -0.37025732 -0.41743153 -0.03736105 -0.37772
-0.08732554 -0.08201958 -0.59664226 -0.28137094 -0.016723335 -0.29671875 -0.20015644 -0.33786395
-0.4971566 -0.12358564 -0.14282918 -0.35424104 -0.3332446 -0.3021619 -0.26508355 -0.49256057
-0.4165101 -0.40172166 -0.05815521 -0.17805879 -0.75533104 -0.21637097 -0.10708557 -0.45995346
-0.6837666 -0.17051317 0.029709257 -0.43608198 -0.19302168 -0.36606622 -0.12635612 -0.5442182
-0.2665774 -0.25639108 -0.3647969 0.023335397 -0.32780358 -0.46507734 -0.4522854 -0.16914676
-0.41817504 -0.49764904 -0.46668786 -0.27337644 -1.5513105 0.0081204465 -0.41840696 -0.3676238
-0.49089867 -0.20597422 -0.49858207 -0.75434726 -0.10492045 -0.1439914 -0.4218835 -0.40437546
-0.26332027 -0.40638238 -0.3657839 -0.005803542 -0.6265386 -0.25077412 -0.28886825 -0.21221882
-0.09682348 -0.22486547 -0.44574264 -0.25952458 -0.55890757 -0.30426568 -0.22212657 -0.055466726
-0.34127402 -0.5170474 -0.12911874 -0.56533843 -0.15427637 -0.34740165 -0.12361481 -0.6784198
-0.5904204 -0.52886456 -0.2748915 -0.16734393 -0.3658142 -0.7307007 -0.43563068 -0.51982015
-0.21258901 -0.59185743 -0.3737076 -0.5716097 -0.19620144 -0.33500776 -0.38508248 -0.4593614

arith.constant8 f4 [5, 64]
00000000: 47b7 903d 53ea 343e ace7 d73d d7af f1bd
00000010: 0206 44be ca77 0c3e 2a1e 30be 6e78 943d
00000020: 26db 2e3e 8d09 1dbe 8222 c13d 1d53 553d
00000030: 0d78 c1bb 5acd b13e 27a2 203d 3eac 0d3d
00000040: 82a6 453d cfe3 a0be 471b 00be 238f 4f3c
00000050: 2890 753e ab4f 1c3e 9bab 423d b90c 113e
00000060: c48c 553e a309 83be e772 3b3e efd6 aabb
00000070: 6c03 843e 771a d03d 0214 8bbe 4c1b 08bf
00000080: 793a 92ba 925d 763e 5c7a 193e 9964 03be
00000090: 80f7 913e cbb8 9e3e f2b4 21be 3e1a 0abe
000000a0: f6f5 93be 97f3 3fbe e2a8 813d 6a5c 753e
000000b0: 0e43 1b3e fcf9 603e 1991 403e d983 a7bd
000000c0: d16c 623e 154f 80be 8085 84be c50a 113e
000000d0: ff4d 1d3e 8422 cdbd eced 8d3c 16fd 123e
000000e0: 9acc 09bf bdfc a2be 4c2e 92bd a11f febd
000000f0: c44b 75be c98c a83e 424a ebbe bae1 67be
00000100: dd42 7f3d cdf4 c83e d547 423e 2b85 a93e
00000110: 8673 783e 6f82 72be a578 953e 3ed4 c7be
00000120: 41c9 153e 1e96 a9be 7b10 59bf 5f0e 2d3d
00000130: 0e88 393e 9067 923b 96a5 423e 5f2f 2d3e
00000140: 31d8 583e 0bec c5be 3d93 0fbf 6755 f2be
00000150: 956b 6abe f334 a4be 0f6f 3abe 0117 19bf
00000160: 4854 34be 5e6b 7d3e 03e0 a5be d6f3 e33d
00000170: 4f20 a0be d027 a7be fbfb 8b3e c02d 4c3e
00000180: 862c edbc b01b 13be 3a12 383e ab59 9ebe
00000190: 42ba 5ebf 8ef0 03be 9f3f 29bf 839e e33d
000001a0: 33bb 2e3d 38f0 17bf 96b7 bbbe a610 603e
000001b0: eafa dbbe 1ed7 4c3e c77a 01bf e9c5 9bbd
000001c0: 4466 a1be fe40 053e 0ca7 2f3c aaa7 b3be
000001d0: f8a2 273e d3ea 6bbd f8f0 79be 85af 20be
000001e0: 6aa1 9b3e 2230 89bd a248 443e 436b b4be
000001f0: 742f bd3d 23a7 033e 87ac 8ebe 734d 6f3e
00000200: 243a c6be 8fd3 943e aecc 34be bfe8 463d
00000210: 2fa3 87be 4438 5c3e d434 d2bd bcf8 823d
00000220: 1f6b f2bd 7985 613d 1fdb 08bf 1546 343d
00000230: 427a bd3d a67f b63e 7231 283e e41c 423e
00000240: 66d4 503e 1a07 44bd 497b bb3d 4a56 1fbe
00000250: b68c 6f3e 6cdf 153e e6b2 723e cc1d a4be
00000260: 1dcf 31be a91b 7fbe 9c31 663e 4afc 0e3e
00000270: a5ee 893e 6f90 1a3e 1463 373d 50e4 93be
00000280: 5dde 803c 5e30 3bbd 390e 99be db29 7e3d
00000290: 7d8c d9be 2b6c a33e 5d2a 03be 8aba ab3d
000002a0: 26d8 57bd b6d3 573d a71f 463e 2b1a afbc
000002b0: bc39 153e 6f7b 4d3e 3382 66be b062 9fbd
000002c0: 2458 9abd b957 11be b763 babd 8a5a 833e
000002d0: f5a6 78be c2c3 2bbe 40bc 4d3e bf7a 91bd
000002e0: 73bc cabe 659d b6be fed0 353e 5530 033d
000002f0: 25d1 433d d0ca f3be 9b3a e3bd 8c20 7f3d
00000300: 22ac 6bbf c7a2 8fbe e58e 533d b064 9cbe
00000310: c4f0 a43e 7371 4e3e 5290 953e 3398 bdbe
00000320: 6c99 2dbe e729 7d3d b5ee a83d 09c9 86be
00000330: c2f1 f1bd 8435 9cbe 04c0 9dbe 5f70 e6bd
00000340: ee06 c6be c4f7 d63e 08d7 703e 4c18 92bb
00000350: 1dc0 433e 9686 0a3e 909e 96be 5ac8 dc3d
00000360: 67cc 5d3e f66e 473e d8d9 93bd 02cc f7be
00000370: 816a 87be c4b6 3f3e 395a 8a3e 64a8 dbbb
00000380: 5410 2fbf 452a ae3d 6da8 15bf 0a5b 7dbd
00000390: e07d 803e 9f5f 133d 567e dd3d e165 e2be
000003a0: 4cf7 de3d dad8 e63d 0fad 463e c275 c33b
000003b0: c966 97be 0447 87be 841d 5f3e ebb7 c7be
000003c0: 8359 803e d10f c7be d0c7 a1be 877d 913e
000003d0: 53e0 1e3e a2ac 703e 9e61 c4be 6021 a5be
000003e0: 4f07 92bd 941b 723e 0e5f 7a3e b09b ad3d
000003f0: 1c14 463e 6b95 ac3e 26f3 8fbe a198 7abe
0.070662074 0.17667513 0.10542235 -0.11801117 -0.19142917 0.13717571 -0.17199007 0.07249533
0.17075786 -0.15335675 0.0943041 0.052081216 -0.0059042037 0.34726983 0.03921714 0.03458809
0.048254497 -0.31423804 -0.12510405 0.012668404 0.23980772 0.15264766 0.047526937 0.1416501
0.20854479 -0.2559329 0.1830555 -0.0052136104 0.2578386 0.10161298 -0.27163702 -0.5316665
-0.0011156342 0.24059132 0.14988083 -0.12831344 0.2850914 0.3100036 -0.15791681 -0.13486573
-0.2889859 -0.18745266 0.0633104 0.23961034 0.15162298 0.21970361 0.1880535 -0.08179445
0.22111823 -0.25060335 -0.25883102 0.14164265 0.15361784 -0.10016349 0.017325364 0.14354357
-0.5382782 -0.3183345 -0.07137737 -0.124083765 -0.23954684 0.3291991 -0.45955092 -0.22644702
0.062319625 0.39249268 0.18972714 0.33109412 0.24262819 -0.23682569 0.29193607 -0.39029115
0.14627554 -0.33122343 -0.8479077 0.042250033 0.18118307 0.004467912 0.19008479 0.16912602
0.2117622 -0.3865665 -0.5608404 -0.47330782 -0.22892602 -0.32071647 -0.18206428 -0.59800726
-0.17610276 0.24747989 -0.3239747 0.111304924 -0.3127465 -0.32647562 0.27340683 0.19939327
-0.028951894 -0.1436603 0.17975703 -0.30927786 -0.87002957 -0.12884733 -0.66112703 0.11114218
0.042658996 -0.5935092 -0.36663502 0.21881351 -0.4296487 0.20003936 -0.5057797 -0.07606108
-0.31523335 0.13013074 0.010720979 -0.35088855 0.16370761 -0.057596993 -0.24408329 -0.15691955
0.30396587 -0.06698634 0.19168332 -0.35238084 0.092375666 0.12856726 -0.27866003 0.23369388
-0.38716233 0.29067656 -0.17656204 0.048561808 -0.26491687 0.21505839 -0.102639824 0.063950986
-0.11836838 0.05505893 -0.5345935 0.044012148 0.092518345 0.35644263 0.16425112 0.18956333
0.20393524 -0.047858335 0.09154374 -0.1556026 0.2339352 0.1463601 0.23701057 -0.32053983
-0.17364164 -0.24912895 0.22479862 0.13963428 0.26939884 0.1509416 0.044772223 -0.28885126
0.015731031 -0.045700423 -0.29893664 0.062051635 -0.42489997 0.31918463 -0.12809129 0.08385189
-0.05269637 0.052692138 0.19348012 -0.021374783 0.14572805 0.20066617 -0.22510605 -0.07782495
-0.07536343 -0.1419362 -0.0910105 0.25655013 -0.24282439 -0.16773894 0.20091343 -0.0710349
-0.395969 -0.35666957 0.17755505 0.032028515 0.047806878 -0.4761567 -0.110951625 0.0622869
-0.9205953 -0.28053877 0.051649947 -0.30545568 0.3221494 0.20160465 0.2921167 -0.3703018
-0.16953057 0.06180754 0.08248655 -0.26325253 -0.1181369 -0.3050958 -0.3081056 -0.11251902
-0.38677162 0.41985905 0.23519528 -0.004458463 0.19116254 0.13527903 -0.2941785 0.107804015
0.21660005 0.19475922 -0.07219285 -0.48397833 -0.26448444 0.18722063 0.2702196 -0.0067034233
-0.6838429 0.08504156 -0.5846012 -0.0618544 0.25096035 0.035979863 0.10815112 -0.44218352
0.10887012 0.1127183 0.19401954 0.0059649656 -0.29570606 -0.26421368 0.21788603 -0.39007506
0.25068292 -0.38879254 -0.31597757 0.28416082 0.1551526 0.23503354 -0.38355726 -0.32252026
-0.071303 0.23643333 0.24450323 0.08476961 0.19343609 0.33707747 -0.28115195 -0.24472286

arith.constant9 f4 [64, 1, 5, 1]
00000000: e9c3 5cbe d746 8fbc 165d 6a3e 4a6e 2abe
00000010: 7a31 b73d 137b 463d 9054 713e cb5d 013e
00000020: 805a 2dbe 5266 85be c799 43be 4f20 a5bb
00000030: 2715 9a3e 2278 b53d a8f2 37be 8b85 4a3e
00000040: 748a 7d3e 741a 02be 8cad d3bd f32d 55be
00000050: 57df ef3d e4dd 73bc c54a 99bd 2586 ddbc
00000060: 35db adbe 0caa a5be 0276 06be 0a5c d6bd
00000070: 621b 403b 3dec 72bc bfaa e5bd 18cf 85be
00000080: 24e7 41bd 788e 233d 17fe 8f3e 7f70 7abe
00000090: b918 11be 19b0 593d 6943 a33d 263b 8a3e
000000a0: e842 7cbd fcd8 14bd 831a 5e3d 8310 40be
000000b0: 7a10 e0bd 19d9 af3e 6b17 e7bc 3bc0 febc
000000c0: 2b44 c6bd cd0e bfbd 26b2 51be 8639 bebd
000000d0: ade8 da3d 3ffa 8d3e 40df f8bd b6b0 8e3e
000000e0: 8576 12bd cb48 9b3c a12a bb3c d0cf 99be
000000f0: 5a74 ccbd e28e 86be a82f a2bd 46ba 3f3e
00000100: 9d3c 6c3e e4b5 88be ed40 78be 1f92 96be
00000110: d7da 31be 8ff3 3bbe 1b05 6d3e ebe6 383c
00000120: 94ea 36be fdb6 7bbd ee4c 3abe 96b6 593e
00000130: b2e2 1d3e 1bdb 97ba da89 94bd f460 91be
00000140: 262d b13e 41bd 043d eaa9 173c 28a3 53bc
00000150: 81d1 f2bc fe9f 19be ad05 943e 1a8c 79be
00000160: de53 d53d a26e a83b 973a 663e 287a f63d
00000170: 5d6e 48bd 688e 12be 8e8d a0be 60f6 423e
00000180: 8276 473e d3d9 723d 13a9 4cbe 897e ddbd
00000190: 2d92 e5bd cc5f cabd fd29 3c3e a86d b63e
000001a0: 6390 2e3f d5df a1bd 273e cb3d caff 2dbb
000001b0: b81c e4bd 1ef2 af3d f299 943e 9c25 2c3d
000001c0: fd1b bc3d 8a79 12be bc43 5fbe 8679 1a3e
000001d0: 69b8 333e 6398 7a3d f686 173e 7362 273d
000001e0: 65ac bd3d 2f79 88be 662c 463e 653e 3d3e
000001f0: c552 58be 2728 093e 7507 c2bc 5e76 d6bd
00000200: 45f9 e5bd cf35 41be debe 013d 8828 5b3c
00000210: f46b 7fbc bf4e e0bd 1fcf 80be a71b 8b3e
00000220: 6b58 563d 10ac dfbd ac4a 2dbe 55df 27be
00000230: 1436 d13b 9e9d 32be 84f3 0cbe 790f 24bc
00000240: b0ae a83e 9931 36be a83a 28be 3e01 4c3d
00000250: 4d9f bf3c cc05 943e 59c1 a9bd c7c1 e73d
00000260: 3207 cabc 313d 9bbd c5cd 2cbe 199f 763e
00000270: cd61 be3d 6dea aabd 2c2e fa3c f2e6 a53c
00000280: 7c85 5c3e 3a69 1e3e d772 52bd 1450 60be
00000290: 4edb 07be 98fe 39be ad2f 51be 350d 1ebc
000002a0: d3d9 1d3e 83e5 783e e5a3 ad3e 6ca5 a33d
000002b0: b621 9b3c 8916 66bd 60ad b1bc 0164 acbd
000002c0: b797 42be 7f93 763c 0d2a 573d a1f7 003f
000002d0: 352c a0be 6d10 dfbd 64e2 c23d f8d1 4b3d
000002e0: 9632 f4bd 1f5f 6fbe 1a2f 313a 1fa4 30bd
000002f0: 2dd5 4cbd dc0e 743e 83ca 26be 1e1b 34be
00000300: e28f 8a3e 8191 97bd 55ac c33d ea92 84be
00000310: 33e4 bf3d ea0f c9bd 72f8 823c 08fe 8e3e
00000320: fced 7a3e bab2 dfbd 71c1 27be e109 1ebe
00000330: a65a 8d3e accd c03d b493 20be 540d 84be
00000340: cd0a 13be cc60 7ebe a996 93be 1c88 5fbd
00000350: 7fb0 bb3b 0fc7 6a3e efb6 ab3d ea06 c23e
00000360: f5ad 623d 826e 0fbe f53d 48bc 81cd dfbd
00000370: a116 a73e a826 4b3d 56ab 3fbe 2ba7 6a3d
00000380: deb5 18be dcd6 65be be08 153e 48b4 803e
00000390: 32cb 093c 1f3c 86be f5c0 613e 32dc ee3d
000003a0: be80 353d 50ec c33d 24d1 8e3d 918c 7dbe
000003b0: 1a4e b6bd bd1f 0b3e 9b74 cf3e 048b ca3e
000003c0: 92f5 e83d 312b 163e a869 3d3d 1e85 fe3d
000003d0: cdea 413e 8d21 f7bd 844e 59be 5467 24be
000003e0: e6c6 4fbc 9ec3 2e3e 352a c2be 2f36 0fbe
000003f0: e718 d7bd 7f6d e1bd a924 393e ed76 dfbd
-0.21559109 -0.017489834 0.22887072 -0.16643634 0.08944984 0.048457216 0.23567414 0.12633435
-0.16929054 -0.26054627 -0.1910163 -0.005039252 0.30094263 0.08860804 -0.1796366 0.19777505
0.24759847 -0.12705404 -0.10335836 -0.2081831 0.117125206 -0.014884446 -0.07484964 -0.027041504
-0.33956304 -0.32356298 -0.13130954 -0.10466774 0.0029313196 -0.014826831 -0.11214208 -0.26134562
-0.047339574 0.03993079 0.28123543 -0.24456976 -0.14169587 0.053146455 0.07971842 0.26998252
-0.061587244 -0.036339745 0.054224502 -0.18756299 -0.10940643 0.3434532 -0.028209409 -0.031097522
-0.09680971 -0.09328995 -0.20478114 -0.092883155 0.10688911 0.27729985 -0.121519566 0.27869195
-0.03575756 0.018955609 0.022847475 -0.3004136 -0.0998313 -0.26280886 -0.07919246 0.18723401
0.23069997 -0.26701272 -0.24243517 -0.29408357 -0.17368637 -0.18354629 0.23146479 0.011285524
-0.17862922 -0.061453808 -0.18193409 0.21261057 0.15418509 -0.0011585684 -0.072528556 -0.28394282
0.34604758 0.03240705 0.009256819 -0.012917317 -0.029640915 -0.15002438 0.2891058 -0.24369851
0.10416387 0.0051401416 0.22483288 0.12035018 -0.048933376 -0.14312136 -0.31357998 0.19039297
0.19478801 0.059289765 -0.19986372 -0.1081515 -0.112095214 -0.09881553 0.18375392 0.35630536
0.68189067 -0.07904021 0.09923964 -0.0026550167 -0.1113829 0.08591102 0.290237 0.042028055
0.09185026 -0.14304176 -0.21803182 0.1508542 0.17550816 0.061180484 0.14797577 0.040865373
0.09261397 -0.26654956 0.19352874 0.18480833 -0.21125324 0.13394223 -0.023685196 -0.104717955
-0.11229185 -0.18868183 0.031676166 0.013376363 -0.015589703 -0.109525196 -0.2515802 0.27169535
0.052330416 -0.1092149 -0.16923016 -0.16393788 0.0063846204 -0.17442939 -0.13764769 -0.010013455
0.32945776 -0.17792358 -0.16428626 0.049805872 0.02339139 0.28910673 -0.08288831 0.11316257
-0.024661634 -0.07580031 -0.1687537 0.24084128 0.09295998 -0.083454944 0.030539595 0.020251725
0.21535295 0.15469828 -0.05137905 -0.21905547 -0.13267252 -0.18163526 -0.20428343 -0.0096467035
0.15415125 0.24306302 0.33914104 0.07990536 0.018936973 -0.056173835 -0.021689117 -0.08417512
-0.19003187 0.015049814 0.052530337 0.5037785 -0.31283727 -0.10891805 0.09515837 0.04976079
-0.11923711 -0.2337613 0.0006759033 -0.043125268 -0.050007988 0.23833793 -0.1628819 -0.1758847
0.270629 -0.074007995 0.09554354 -0.25893337 0.093696974 -0.098174885 0.015987609 0.27928185
0.24504846 -0.10922761 -0.16382386 -0.15433456 0.27608222 0.09414229 -0.15681344 -0.2579142
-0.14359589 -0.24841613 -0.28825882 -0.054573163 0.005727827 0.22927497 0.08384501 0.378959
0.05534168 -0.14006999 -0.012221803 -0.10927869 0.32634452 0.049597412 -0.18717703 0.05728833
-0.14913127 -0.22445244 0.14554116 0.25137544 0.008410262 -0.26217744 0.22046264 0.11663093
0.04431223 0.095665574 0.06973484 -0.24760653 -0.089016154 0.13586326 0.4051865 0.39559186
0.11374964 0.14664914 0.04624334 0.12427734 0.18937226 -0.12066946 -0.21221358 -0.16055042
-0.012681698 0.1706681 -0.37922826 -0.13985513 -0.105027966 -0.11007213 0.18080391 -0.10911355

arith.constant10 f4 [64]
00000000: c07f ae3e dbf4 f83e 0ffd 953e 6d95 323e
00000010: e44e cc3e 93fb 973e 58f1 7f3e 3950 ab3e
00000020: 8808 a53e 0226 113f 0d73 a63e c143 a13d
00000030: 2f99 5b3e 7260 273e 7c5f 873e b652 033f
00000040: e828 103f afb5 333e 4401 0d3f 2bbd b93e
00000050: 36b2 6d3e 8bfd 373e ce68 033f d067 b43e
00000060: ef67 1c3e 39d5 383e f713 f73d 6521 f53e
00000070: 5c41 373e 5717 533e 03ca ba3e d1fe 0e3f
00000080: e00e a43e bd9f 083e d16b 803e c242 003f
00000090: b768 613d 4c01 303e bfba c13e 23a1 2f3f
000000a0: bf57 b53e e75e 093f ba2e da3e ac2e 863d
000000b0: 8f93 bb3d 1787 663e 47d3 ab3e 38a6 493e
000000c0: d7a9 203e a16a ca3e 013b d93e 3b38 f03e
000000d0: 09f2 5d3e 05b0 a73e d7e4 dd3e 07cc bf3e
000000e0: 75ac 4c3e 3c52 d03e 7b8c 083f 707d f23e
000000f0: 4b65 223f bcb2 e33d 0327 b13e c139 153f
0.3408184 0.4862431 0.2929463 0.17439814 0.3990394 0.29684123 0.24994409 0.33459643
0.3223307 0.5669862 0.32509652 0.07874251 0.21445154 0.16345385 0.26440036 0.5129808
0.5631242 0.17549776 0.55080056 0.36277136 0.23212513 0.17967813 0.51331794 0.35235453
0.15274023 0.18050088 0.12064355 0.4787704 0.17896026 0.20614372 0.36482248 0.5585757
0.320426 0.13342185 0.25082257 0.50101864 0.055031504 0.17187995 0.37837788 0.6860525
0.35418507 0.53660434 0.42613775 0.06551871 0.09159004 0.2251247 0.3355963 0.19692314
0.15689789 0.39534476 0.4242783 0.469179 0.2167436 0.3275148 0.43338653 0.37460348
0.19987662 0.4068774 0.53339356 0.47361326 0.6343581 0.11118075 0.34600076 0.5829125

arith.constant11 f4 [128]
00000000: bae0 a2bc f1c4 e7bd 4b16 a3be 7153 36bd
00000010: 2179 2fbe 912d 4a3c 5384 a3bd 78a1 18be
00000020: 63d8 36be c946 57bc e87f 2dbe 3139 c9bd
00000030: b06f 9ebd 5b65 cabd 8a60 67be 953f 2bbe
00000040: 6887 2cbe 7f33 2bbe 98e8 3dbe f22c f9bd
00000050: 9017 bbbe f5f9 fcbd 2932 45be 4f93 0bbd
00000060: 5b33 efbd 75b7 9a39 733e 2ebe df72 d9bd
00000070: bc1e c5bc 61f7 5abe 7d64 adbd 368b 46bd
00000080: acb2 0ebe dd8a 0ebb cb7e 16be a163 fabd
00000090: a2f7 3ebe f583 a9bd 7369 c2bc 9ba7 84bb
000000a0: bc1f 36be 58a0 8ebc 44c2 59bd 2781 2dbe
000000b0: e1d5 63be 0497 0cbe 8dab 98bd b7f6 0cbe
000000c0: fa20 08be 1829 edbc 3c47 3dbe ad21 b6bd
000000d0: ae35 42be 6481 d8bd 92d8 edbc d931 f4bd
000000e0: e400 24be ff1a 13be 86be 80bd cdc8 93be
000000f0: d418 21be 69fd fbbd 98d5 3fbe ab79 4fbc
00000100: 8a15 febc 2462 31be cd5b 2fbe 493b 4bbe
00000110: 8f3a cfbd 2e88 e9bd 1e75 2fbe 446a 193d
00000120: 9ea1 bbbd 05c4 79be c4c6 76be 551f 11bd
00000130: b255 2cbe 6b04 9bbe e403 6cbc 3261 7ebe
00000140: a167 f9bd f132 efbd 1602 62be f406 fa3c
00000150: 866f 9abe d8dc 0abe b57e acbe ef57 20be
00000160: 79f1 e1bd 9cb4 3cbe 9bd1 b9be f38e 10be
00000170: fc57 3cbe 38ea 88bd c260 123c 7669 5cbd
00000180: ad80 0abe c3d9 2cbe 913f ebbd b728 60be
00000190: 8be4 afbd 2c9b a3bd 988e fbbc bb6d d3bd
000001a0: df4c 52be 3e15 92be 9262 8ebd 69de 7e3c
000001b0: e15f 33be c267 91bc 3bfc 31be ebca b9bd
000001c0: a55a 3abe 8439 98bd 8de8 6abd e599 b03c
000001d0: 19e1 19be 92f4 16be a1a7 1bbe 6c75 3dbe
000001e0: f40e d7bd 0e90 473b db81 35be 1c04 05be
000001f0: f99f 2fbe f59d 58be 408b 15be b878 dabd
-0.019882549 -0.113168605 -0.31852946 -0.04451317 -0.17136051 0.012339965 -0.07984223 -0.14905345
-0.17855982 -0.013139435 -0.16943324 -0.098253615 -0.077361465 -0.09882613 -0.2259542 -0.16723473
-0.16848528 -0.16718863 -0.18545759 -0.12166776 -0.36541414 -0.12352363 -0.19257416 -0.03407603
-0.11679717 0.00029509855 -0.1701601 -0.10617613 -0.024062507 -0.2138343 -0.08466432 -0.048472606
-0.13935345 -0.002175025 -0.14696805 -0.12226034 -0.18649152 -0.08277122 -0.023731923 -0.0040483004
-0.17785543 -0.017410442 -0.05316378 -0.16943799 -0.22249557 -0.13729483 -0.07454596 -0.13765989
-0.1329383 -0.02895026 -0.18484205 -0.08893142 -0.1896579 -0.10571554 -0.029033933 -0.1192357
-0.16015965 -0.14365767 -0.062863395 -0.28864136 -0.15732127 -0.123041935 -0.18733823 -0.012663285
-0.03101613 -0.17322594 -0.17124863 -0.19846834 -0.10118591 -0.11402927 -0.1713452 0.03745486
-0.091616854 -0.24391182 -0.2409926 -0.03543027 -0.16829565 -0.30276808 -0.0144052245 -0.24841765
-0.12177969 -0.11679638 -0.22071108 0.030520894 -0.3016321 -0.13560808 -0.3369042 -0.15658544
-0.110323854 -0.18428272 -0.3629273 -0.14117031 -0.18392938 -0.06685299 0.008934202 -0.053811513
-0.13525648 -0.16879945 -0.11486734 -0.21890531 -0.08588513 -0.07988581 -0.030707642 -0.10323664
-0.20537136 -0.28531832 -0.069523945 0.015555956 -0.17517044 -0.01774967 -0.17381375 -0.09071907
-0.1819864 -0.07432845 -0.057350684 0.021557758 -0.15027274 -0.14741734 -0.15200664 -0.18501824
-0.10500899 0.0030450854 -0.17725317 -0.12989849 -0.17150868 -0.21154006 -0.14603901 -0.106675565

arith.constant12 f4 [256]
00000000: 61f4 acbe 92f0 2fbe 5738 5b3e db36 9fbe
00000010: 3665 7d3e c441 4cbe cfd6 283e 6268 c83d
00000020: c4b1 12be 9e10 1abf 22e2 dabd 86a0 9abe
00000030: cece 8bbe abbd f9bc 84f8 cfbe 36c6 b4be
00000040: 6134 42bd 5e38 5abe b6bc 303e daf9 89be
00000050: 2a70 2bbd dcb1 de3d 1842 84be 71ac 713e
00000060: 4b20 84be 052a 46be 96cc 94be 21a4 e5be
00000070: 7f8d 693d 0ed3 adbe 6507 05bf 1f0f b0be
00000080: a515 e43e 872f 7dbe 8878 72be 4f7b e5be
00000090: 65ce 89be d792 5c3e 6783 9cbe 8bcf 5bbe
000000a0: b71a 3cbe c719 d8bc 144c dfbe 5dce a63e
000000b0: 91d7 6fbe 646b acbe 900e c8be 4a3e 68be
000000c0: 5d30 edbc 6909 7ebe 894b 3cbe 9a3d fcbe
000000d0: c82f 63be 1302 8cbe fedc aebd 3882 03be
000000e0: b825 73be 0a4f aabe b064 94bd 65f1 dd3e
000000f0: a91d 18bc e08a 24be 34f9 eb3d 52f0 5cbe
00000100: dfa8 05bf 46d7 e1be 856d 8dbe 1da0 df3e
00000110: 5638 65be 8259 0d3f 6ff9 3bbd a5b5 99be
00000120: b329 18be 3af9 4abe 688a 26be 8c79 8abe
00000130: a19d 1abe 8dd4 56be 3f57 96be a963 c33c
00000140: 6330 52be 9845 14be 097d 62be 72dc babe
00000150: 8810 673e f20c 8dbd aa99 e1be cec7 d0be
00000160: d89b 00bf dc3a b9be 2d8b 7cbe acfe 2ebe
00000170: 1786 c3be f2f9 eabd 93c3 96be d607 1abe
00000180: bb01 c5be 9f4c 95be eff4 95be 0dbf 0ebf
00000190: 95b4 15bf 944a c1be 4fe2 20be 4e33 8c3e
000001a0: 2c80 62be 1d52 04bf b078 813e 74ad e6bd
000001b0: 152e 1fbe d07c a0be 83c7 33be eabc 20be
000001c0: 7f83 c2be d581 2cbf fd9d 20be 1d76 50be
000001d0: 685f 29be ca0b 89be 94d3 85bd 2296 86be
000001e0: 43e3 8fbe 3472 d5be aaa1 88be bac5 e93e
000001f0: f500 58be 2daa 7dbe cf09 053f dcc5 89be
00000200: 140d 4ebe 81c1 64be c73a cdbe a14d 21be
00000210: 1e2c 1f3c 7754 62bd 13ca efbb 2a09 203e
00000220: bb20 79be bd00 cfbe 246d 3fbe af4e d73e
00000230: f3d5 f0be 5bf6 403b b6d4 39be 1133 b7bd
00000240: 62f5 89bd cd6b 253c fae7 1d3e 9a58 05bf
00000250: 781c 99be 3f63 a1be e21f 553e 0059 e0bd
00000260: 6c23 1ebe 0498 dfbe 078b 22be 09b1 01be
00000270: 28d2 4abe d874 ecbd 6a75 cebe 0ee8 b5be
00000280: 4a37 81be 7dfd 72be 3b00 07bd 19fe c5be
00000290: 4ac7 3abf bf3b dabe 40da a0be ca8a abbe
000002a0: 459f 8dbe e5be 83be 9e95 0fbf 16be c2be
000002b0: ab42 89bd ced7 16be 6a99 dfbd 4972 643e
000002c0: eba3 ad3d 76b3 3abe 184e 46be df28 67be
000002d0: c787 033f 47d9 39bd 9323 4abe e2b4 35be
000002e0: 11f4 5b3c 5b8e 13be 4bdf dcbe e02e 1ebe
000002f0: 823e b1be 0614 c1bd 7626 f3be f0d0 1e3e
00000300: baf9 69be ce16 febc f0b6 1fbe f51f 14bf
00000310: 5132 6b3d 5926 2d3e a2de 51bd 5830 cbbe
00000320: da1e 083e 7447 9dbd 355b 07be 403a 45be
00000330: a1dc 593f ed2f cbbe bfd1 a03d 03ad 96bb
00000340: 7656 aebc 4e6e bdbd e955 98bc b902 d13e
00000350: c400 d0be 180c 773d 132a 91be 0bbe ed3d
00000360: 8cc2 c0be cac3 37be 0ad8 a4be e8bd c8be
00000370: 4f37 e03d 1cef 21be af09 3ebe 7197 5abe
00000380: d157 25be e0bf 83be 0a50 0ebe f34e 60be
00000390: 01fc 233e 00f3 8bbe 6608 8cbe 21ba 05bf
000003a0: d8cd 22be ab11 bb3d 4b55 e4be 2c53 883e
000003b0: 4e46 22be 5790 1c3d aded 9ebe 0df1 0d3e
000003c0: 91f9 863e 99c7 62be b900 2cbe 4dc2 a9be
000003d0: 5048 c0be 1db5 253f 9c36 a4be cc4e a93c
000003e0: f9fc 94be 7ac8 b8bd 0dd0 e4bd 1f82 163e
000003f0: 511f 9bbe 7d76 98be dd01 12be 9a8a 183e
-0.33780196 -0.17181614 0.2140821 -0.3109654 0.2474564 -0.19946963 0.16488193 0.097855344
-0.14325625 -0.60181606 -0.10687663 -0.30200595 -0.27306217 -0.030485949 -0.4061929 -0.35307473
-0.047413234 -0.21310565 0.17259488 -0.26948434 -0.041855015 0.10873768 -0.25831676 0.23600937
-0.25805888 -0.19351967 -0.29062337 -0.44851783 0.057019707 -0.33950084 -0.5196441 -0.34386536
0.44547763 -0.24725161 -0.23678792 -0.4482064 -0.2691528 0.2154039 -0.30569002 -0.2146589
-0.18369566 -0.02637948 -0.4361273 0.32579318 -0.23422076 -0.33675683 -0.3907361 -0.22680011
-0.028953725 -0.24808277 -0.1838819 -0.49265748 -0.22186196 -0.27345333 -0.08538245 -0.12842643
-0.23744857 -0.33263427 -0.07245767 0.43348232 -0.009284415 -0.16068602 0.11522141 -0.2157605
-0.522108 -0.44109553 -0.2762262 0.43676844 -0.22384772 0.55214703 -0.045892175 -0.30021396
-0.14859657 -0.19821635 -0.16263735 -0.27045858 -0.15099193 -0.20979519 -0.29363438 0.023851233
-0.2052627 -0.14479673 -0.2211801 -0.3649631 0.225649 -0.06887235 -0.4406255 -0.4077744
-0.502378 -0.3617772 -0.24662466 -0.17089337 -0.3818824 -0.114734545 -0.29446086 -0.15042052
-0.38477883 -0.2916002 -0.29288432 -0.5576027 -0.5847867 -0.3775221 -0.1571133 0.27382892
-0.22119206 -0.51687795 0.2528739 -0.11263552 -0.15544923 -0.31345224 -0.17556576 -0.15697065
-0.3799095 -0.6738561 -0.15685268 -0.20357557 -0.16540301 -0.26766807 -0.06534496 -0.26286417
-0.28103074 -0.41688693 -0.2668584 0.45658666 -0.21094115 -0.24771948 0.5196809 -0.26908767
-0.20122176 -0.22339441 -0.40083906 -0.1575227 0.009715108 -0.055256333 -0.0073177903 0.15628496
-0.24328892 -0.4043025 -0.18693978 0.42052218 -0.4703823 0.0029443714 -0.18147549 -0.08945287
-0.06736256 0.0100965025 0.15420523 -0.5208832 -0.29904532 -0.3152103 0.20812944 -0.109544754
-0.154432 -0.43670666 -0.15873347 -0.1266519 -0.19806731 -0.11545724 -0.40323955 -0.35528606
-0.25237495 -0.2372951 -0.032959204 -0.38670424 -0.7296034 -0.42623708 -0.31416512 -0.33504325
-0.27660576 -0.25731578 -0.5608767 -0.3803565 -0.06702169 -0.1473076 -0.10917933 0.22309221
0.084785305 -0.18232521 -0.19365728 -0.22574185 0.51379055 -0.045373227 -0.19740133 -0.17744783
0.013424889 -0.14409773 -0.4313911 -0.15447569 -0.34618002 -0.09427647 -0.4749028 0.15509391
-0.2284917 -0.031016733 -0.15597129 -0.5786126 0.057421032 0.1690916 -0.05123771 -0.3968532
0.13293019 -0.07679644 -0.13218386 -0.19260502 0.8510228 -0.39685002 0.07852506 -0.0045982613
-0.021281462 -0.092495546 -0.018595653 0.4082239 -0.40625584 0.060314268 -0.28352413 0.116085134
-0.37648427 -0.17945781 -0.32196075 -0.39207387 0.10948049 -0.15813869 -0.18558381 -0.21346833
-0.1614678 -0.25732327 -0.1389772 -0.21905117 0.160141 -0.27333832 -0.27350157 -0.52237135
-0.15898836 0.09134229 -0.44596323 0.26625955 -0.15847132 0.03822359 -0.31040707 0.13861485
0.2636228 -0.22146453 -0.1679715 -0.33156052 -0.3755517 0.6472948 -0.32072914 0.020667456
-0.29099253 -0.09022613 -0.11172495 0.14698075 -0.3029733 -0.297779 -0.14258523 0.14896622

arith.constant13 f4 [128]
00000000: dc62 e3be 2f3f 52be 727a cabe 36e7 93bd
00000010: 1707 78bf 8073 6b3d 6fe0 04bf e416 cbbe
00000020: ad9d 1dbf 966f 1abe 587c 563d 24df f13d
00000030: bcae 70be 83b1 04bf 5d52 41bd 3a52 88be
00000040: 980e a3be f4d0 0dbe d801 a9be 6e3a 57be
00000050: 9661 ddbe ce9f e5bd bfe6 13bf 63cb c7be
00000060: ffbd 363c 51b3 19be 77ab 0abf f9d5 c2bc
00000070: 3b8a e3be 67cc c3be c1e4 9b3e f3de 22bf
00000080: eb76 d2be e80a 713e d39d 993d 633f 8bbe
00000090: e736 26be b47b 85be a5d3 20bf 7ee6 13bf
000000a0: f612 43bd 3a61 babe 79d0 16bf 8249 8ebe
000000b0: a5f4 63be d450 bcbe 9fe1 18be 0e68 d2bd
000000c0: d754 aabe 5722 4f3c 3126 363f badb 2ebe
000000d0: 46b4 a9bd 8a97 0ebf a84d c4be bb93 693d
000000e0: bfd6 e43c 7008 63bf 0304 80be d428 ae3e
000000f0: ea83 32bf f931 2f3e d241 1fbf fddb 0bbf
00000100: ae90 9bbe c93a b3be 2292 19bf a669 02be
00000110: a9ac 34bf c8c3 853e da0b d03e bf4e a3be
00000120: e0d7 083d 2930 54bf 0c24 a5bb b4e5 e73d
00000130: d411 003e ad78 0abb 49d3 913d e747 813e
00000140: 0388 b2bd 0ff6 933e 108f 8cbe 393a edbd
00000150: 771f 01bf 7b6d 863e 2638 443d eed6 893d
00000160: eed0 f1be c849 413e 3ee9 cdbe 94cc 5cbf
00000170: b220 48bf af0f d3bc fe11 d2be cd31 e0bc
00000180: 0cc0 7bbe 56fe aebe 5342 72bd 9224 26be
00000190: af4a cfbe cb03 cd3d f5fc 25be f4e4 e0be
000001a0: a7cf 22bf 10eb a7bd 9960 babc 2147 0fbf
000001b0: 159f f9be 1fb3 133e 01cc 33be a6c7 39bf
000001c0: 0d48 77be 43d2 46be b3e0 6dbf da5d a6be
000001d0: 245e 6f3d 40bd 96be e0fe 99be 588c b0bc
000001e0: 16f3 02bf 7625 d0bd 0fad edbe d978 f6bd
000001f0: 7c1b 1fbf cb2c 00bf f36b bc3d 947d 91be
-0.4441136 -0.20531915 -0.39546543 -0.07221834 -0.9688582 0.057483196 -0.5190496 -0.39665902
-0.6156872 -0.15081629 0.052364677 0.11810139 -0.23504156 -0.5183336 -0.04719769 -0.26625234
-0.31847072 -0.1384924 -0.3300922 -0.21018383 -0.43238515 -0.11212121 -0.57773966 -0.3902236
0.011153697 -0.1500981 -0.54167885 -0.02378367 -0.444414 -0.38241884 0.30447963 -0.63621444
-0.41106352 0.23539317 0.07500806 -0.27196798 -0.16231881 -0.2607094 -0.62822944 -0.5777358
-0.047625504 -0.36402303 -0.58911854 -0.27790457 -0.22261293 -0.36780417 -0.14929818 -0.10273753
-0.33267853 0.012642465 0.71152025 -0.17076007 -0.082863376 -0.5569998 -0.38340497 0.057025652
0.02793443 -0.8868475 -0.2500306 0.34015524 -0.69732535 0.17108907 -0.6220981 -0.5463255
-0.3038382 -0.35005787 -0.59988606 -0.12735614 -0.7057596 0.26125932 0.40634042 -0.31896016
0.033409 -0.82885987 -0.0050396975 0.11323109 0.12506801 -0.0021129057 0.071203776 0.2525017
-0.087173484 0.28898665 -0.27452898 -0.11583371 -0.50438637 0.26255402 0.04790511 0.06730448
-0.47229713 0.18875802 -0.40217012 -0.8624966 -0.7817489 -0.025764314 -0.41029352 -0.027367497
-0.24584979 -0.34178418 -0.059145283 -0.16224888 -0.40486667 0.10010489 -0.16209777 -0.43924677
-0.635981 -0.081991315 -0.02275114 -0.5596791 -0.48754182 0.14423798 -0.1755829 -0.72570264
-0.24148579 -0.19416146 -0.9292099 -0.32493478 0.05843939 -0.2944126 -0.30077267 -0.021551296
-0.5115217 -0.10163395 -0.46421096 -0.120347686 -0.6215131 -0.5006835 0.09200277 -0.2841612

arith.constant14 f4 [64]
00000000: 6060 393e a319 9d3d 0b8a 7a3d 7816 bd3d
00000010: f788 113e 3d6b 093e 582c 1abe f9b8 543d
00000020: a1f0 b7be 1234 353e 4c2d 2d3e b470 4b3d
00000030: 1501 3abe f6c1 1cbd 517e 003e 0799 893d
00000040: 5033 47be f95f 4b3d ca3d 54bd c663 753e
00000050: 0afe 213d a0ab 6cbe 3128 1cbe 7ae0 66be
00000060: 6c16 243d bbbc 9bbe 250a a6be 3d47 883d
00000070: 65b0 2c3d 960d 33be f81e a2be 0af1 abbe
00000080: 4337 b53d 6812 ab3d 9096 28be 165f e4bb
00000090: e24a 0dbe 1b24 783e 5eb3 973e 096c 043e
000000a0: a38d b4bd 861d d6bd 591f e83d c0e0 e4bd
000000b0: 44fc 293e c4e2 ffbc e4cf 50be 9c5a 13bb
000000c0: 51f2 60be ee11 3abe 1340 1cba 8d7e bd3c
000000d0: 54a4 2b3e 65ac e43d 22d0 5cbe 3a11 1dbe
000000e0: a9a5 14be ece5 493d cbe2 a3be cd36 a3be
000000f0: 81c3 95be b0f4 18be 226f 68bc 2c67 2abe
0.1810317 0.076709054 0.061166804 0.09232801 0.14212404 0.13419814 -0.15055978 0.051934216
-0.35925773 0.17695644 0.1691181 0.04966803 -0.18164475 -0.038270913 0.12548186 0.06718641
-0.19453168 0.049652074 -0.05181674 0.23963842 0.03954891 -0.23112345 -0.15249707 -0.22546569
0.040060446 -0.30417427 -0.32429615 0.066542126 0.04216041 -0.17485651 -0.31664252 -0.33582336
0.08848431 0.0835312 -0.16463685 -0.006969343 -0.13798097 0.24232523 0.29629034 0.12931837
-0.088160776 -0.1045485 0.11334104 -0.1117568 0.16600138 -0.03123606 -0.20391804 -0.0022484427
-0.21967436 -0.18170902 -0.00059604755 0.023131633 0.16761905 0.11165694 -0.21563771 -0.15338603
-0.1451632 0.049291536 -0.32008967 -0.31877747 -0.2925072 -0.14937091 -0.014186652 -0.1664092

arith.constant15 f4 [5]
00000000: 78c6 57bf dc8c 62be 8037 483f 2612 9bbe
00000010: 2669 57bd
-0.84287214 -0.22124046 0.78209686 -0.30287284 -0.05259051
